robotics-perception/p4/checkpoint.pt (torch, 751405 bytes, 30 tensors)

conv1.weight f4 [6, 1, 5, 5]
00000000: 79af a63c aa0b 893e cf53 943e b4db b73c
00000010: a727 28bf 30c5 b0be 7a2b 04be 788f 173f
00000020: 168e 0e3f 0ad7 a2be cef2 28bf 893e 70bf
00000030: 7d8c 963e 7517 383f da7d 86be ff30 19bb
00000040: 9cb6 2cbf e3f8 3e3e 494d f33e d796 3fbe
00000050: 1210 e33e 5d74 bcbe d7f6 f5be e607 233e
00000060: c4f0 1e3d 882e 30be d5fd cbbd ac06 1abd
00000070: b210 9b3d 3615 23be 3d37 49bf 3977 1fbf
00000080: 3d79 a4be f7ff 2d3e 9040 503e 294d e5be
00000090: d95b 93be d8f4 97be 806f 4abd bc7c d83d
000000a0: 846d 453e 767a 463e 0ee9 5a3e 7194 593e
000000b0: 0f89 853e 8267 933e 9bb4 783e 64c6 173e
000000c0: 9c95 b6bd 11f4 de3d 34cb 9ebd 7cbf 1ebd
000000d0: 9d4c 2abe 4149 82bd 8893 78bd 6b92 9e3d
000000e0: 5741 913e 4f0a 993e eaa3 abbd 23e0 d1be
000000f0: 6bf0 9bbe be93 5a3d 1706 893e 0a05 23be
00000100: 8edd cfbd 1f00 0abe 6bee 013f 0b7c f63e
00000110: f4f0 e53d 0704 d33d 7190 c73d 60a1 353e
00000120: 8c26 983e cc5f 2dbd 198a 52bc 7129 5f3e
00000130: 546b cebc 6429 0dbf ce6c 2dbf fed6 93be
00000140: af69 db3c da41 043f 8ba4 1cbf 603b 6ebf
00000150: 090e 0d3d cdb3 a93e c44f bb3e 2d3a 9ebf
00000160: 1707 33bf e21f d43e 8436 a13e 9855 343e
00000170: 810c d4bf 4af9 c13d 958e e73e a74c fd3c
00000180: 4cf2 08bf f307 5bbf 3676 d83e cfce a33e
00000190: f6e6 40bf b876 9dbf b86d 0abd e3f0 0e3f
000001a0: f0a7 833e 7143 79be ec79 8fbf c8f4 1bbf
000001b0: ca2b 283e c7fc 02be f30f 8abe 0589 3abf
000001c0: a80d 1dbf b223 61bc bb51 6c3c 0236 13be
000001d0: f0d7 adbe 51d4 19bf d46c 513c d3c9 703e
000001e0: df5a adbe 1d65 98bf 1b49 83bf 580b 8bbd
000001f0: f023 663e 393a e83d dd24 f3bd cf98 023e
00000200: aed8 393e b02f 103f f20b 23be 6667 2ebe
00000210: 00d3 21bf 2bbc 11bf 24de 70bd 5264 da3d
00000220: 3192 a4be 76b5 98bf 61ee abbf e046 7fbf
00000230: 6ade d23e 15f3 4f3e f6b7 94be 451b 11bf
00000240: ecf0 e1be bee1 6a3e 459c 133f a08e fb3e
00000250: 3976 363e 20ef cbbc
0.020347344 0.2676671 0.2897019 0.02244363 -0.65685505 -0.34525442 -0.1290721 0.5920329
0.55685556 -0.31804687 -0.6599549 -0.9384542 0.2940406 0.7191079 -0.26267892 -0.0023375151
-0.6746614 0.1864963 0.475199 -0.18709885 0.44348198 -0.36807528 -0.48039886 0.15920982
0.03880383 -0.1720525 -0.09960524 -0.03760402 0.07571544 -0.1592606 -0.7859991 -0.62291294
-0.32123747 0.16992174 0.20337129 -0.4478543 -0.28781012 -0.29678988 -0.04942274 0.10570666
0.19280058 0.19382653 0.21377966 0.21248032 0.2608113 0.28789908 0.24287646 0.14821774
-0.089152545 0.10886396 -0.07753602 -0.038756832 -0.16630788 -0.06361628 -0.06068757 0.07742771
0.28370163 0.29890677 -0.083808735 -0.40991315 -0.30456862 0.053363554 0.2676246 -0.15919891
-0.1014968 -0.13476609 0.5075442 0.48141512 0.11227599 0.103035025 0.09744347 0.17737341
0.2971691 -0.042327687 -0.012850308 0.21793152 -0.025197662 -0.5514128 -0.6774415 -0.28874964
0.026783792 0.5166298 -0.6118857 -0.9305935 0.034437213 0.3314499 0.36584294 -1.2361504
-0.69932693 0.41430575 0.31486905 0.17610776 -1.6566316 0.09471376 0.4522597 0.03092034
-0.53494716 -0.85559005 0.42277688 0.3199372 -0.7535242 -1.2301855 -0.033796042 0.55836314
0.25714064 -0.24342133 -1.1209083 -0.6092038 0.16422954 -0.1279174 -0.26965293 -0.72865325
-0.6134896 -0.013741421 0.014423783 -0.14376071 -0.3395381 -0.60089594 0.012782294 0.2351449
-0.33858392 -1.1905857 -1.0256685 -0.06789273 0.22474647 0.1133923 -0.118722655 0.12753604
0.18149063 0.56322765 -0.15922526 -0.17031631 -0.63212585 -0.56927747 -0.0588056 0.10663666
-0.32142785 -1.1930377 -1.3432122 -0.9971752 0.41185313 0.20307572 -0.290466 -0.56682235
-0.4412912 0.22937676 0.57660323 0.49132252 0.17818536 -0.024894297

conv1.bias f4 [6]
00000000: e127 45be 0801 69bd e7af c1be 01c5 9f3b
00000010: b77d e43d b1f4 15be
-0.19253494 -0.05688575 -0.37829515 0.0048757796 0.11156791 -0.14644124

conv2.weight f4 [16, 6, 5, 5]
00000000: 44c7 ce3e fcee e7bd 1c60 d8be 23b0 d1be
00000010: cd90 43be 8e27 d33d 163d 10bf 6480 89bf
00000020: 127f 22bf cf53 63be b637 c8be 2203 62bf
00000030: 5a6d 93be 71db b6be ce8e 88be e623 8cbd
00000040: 94f7 083c aef3 8c3e ea84 bbba 020c 543c
00000050: 47bd 7d3e bbc6 e63e da33 f73e b539 743e
00000060: da95 483e da28 17be 54cb 0fbd c4f1 71be
00000070: b4b8 1cbf 5357 78bf ab21 03bf 7c81 15bf
00000080: 0fff 50bf b9ca b6be dd2b 22be 7522 49be
00000090: 6402 b0be 9445 9e3d 7a34 b43e 445e d63d
000000a0: f51f bcbe 450b 363e ae14 bd3e f57a 143e
000000b0: ff53 77bd 1847 c7bb 5f77 593e aeaa e43d
000000c0: 4a8a 873e e87d 263d 0206 163d 0831 f43d
000000d0: 9cff 09be 8ff0 34bf a682 16bf 7e89 afbe
000000e0: 4a8e d0be 629a 8dbf 2517 36bf d182 86be
000000f0: 4271 b0be 93de 91be 47ec 87be 3802 0e3e
00000100: fb91 893d eac8 35bf f4ed acbc 7cb8 8e3e
00000110: a9e9 893e 7e4e 8d3e e53e babe f06e 553e
00000120: ed07 fc3d 5bea 863e b33d 863e 494b 6fbe
00000130: ad35 02bf ef37 83bf d271 73bf 3ff0 6cbf
00000140: 3fb5 4ebe dc35 08bf 66df 87be cb67 243d
00000150: aedc 5a3e 1962 bfbe 9364 b93e 9762 8d3e
00000160: e4c4 23bd ff69 043e 0397 9c3e 5e3b 033f
00000170: 36c0 9dbd 0fcc b13e 6790 413c 6c4e 22be
00000180: 5c07 f8be 4b9f 90bd d938 413f ea79 473e
00000190: a59a 633d 4e6c bb3d 6125 42be 4e98 cdbd
000001a0: 4a64 a5be 6107 293e 21d9 1f3d 6c4e c43b
000001b0: 197b d93d 9a81 9f3d 84b1 1f3e 07ce 173e
000001c0: 0a73 30be ac47 19be e732 21be 444a 7a3e
000001d0: e816 d43d 4a63 f6bc fee8 28bd 0bf7 dabe
000001e0: 7f70 cd3e 996f 2b3e fbe4 fb3d f66e 343e
000001f0: 816e 6abe 605a 393e 2c2a 9dbe 35e5 9cbe
00000200: 9e5e ccbe 6a71 14bf 79d0 c13e db61 d53d
00000210: c5a6 b3be 68d1 5b3d cee7 1d3f f806 263c
00000220: c95e af3d 9908 02be 9868 c9be 2b16 2d3e
00000230: ad18 e4be 5a5f 04bf 2125 953e 2cc9 af3e
00000240: 3167 8b3e e23f 23bf dc2f d3bc d372 cbbe
00000250: f4a1 6abe fe2b f23d 4137 adbe 1417 9fbe
00000260: e4bd dfbe 1877 abbe 0321 c5be 44b8 c9be
00000270: a78b 93be 2f7e b6be 936e bbbe 4c53 bcbe
00000280: f27e 95be c971 72bd 1e70 61be 0e75 a0be
00000290: e2d3 bbbe 1780 50be 18a2 283d 3f2b 82be
000002a0: 8e12 aebe 0890 bfbe 3d4c 80be 2afb 02be
000002b0: 699d 80be b6e1 3ebe aa5c b5be caa4 e4bd
000002c0: 85e4 33be 6c21 51be 8451 57be 0b27 3ebd
000002d0: 1e93 f4bd 169b 3fbe 02c0 91be 5473 8cbe
000002e0: 4a17 5cbe 0efe babe 5d75 5fbe 9448 90be
000002f0: bb5a 98be bac1 c2be b20e 69be 362b 3bbe
00000300: 0b5d adbe b88c 83be c77d 99be c963 65be
00000310: c296 0bbe efa7 8fbe 4a7f ccbe ad5e c5be
00000320: 0e5a d2be d753 a0be 101d 28be 1f20 9abe
00000330: 49f7 57be a5c7 b8be 8409 7fbe 52da 8ebe
00000340: b219 98be 4ae0 a0be ce40 9cbe d35d cdbe
00000350: e507 85be 502b 67be 2b5a babe 84cf dcbe
00000360: e90d bcbe dbcf 94bd 8e33 9fbe 035d 7abe
00000370: a11e bbbe 339a 8dbe 610a 2abe 6c13 7abe
00000380: 056a 82be d6d4 0abe d57e 89be ff2f 86be
00000390: 82f8 a2be eadd a5be ed4f a8be bf30 c1be
000003a0: 02c8 6ebe 559d 99be 2551 67be b6b0 c3be
000003b0: c456 a2be c674 94be 096d c4bd c24a 37be
000003c0: 06e4 85be 7f68 98be fa7b bfbe 6d81 883d
000003d0: 98ac 3bbe 5825 8ebe a08e 4abe 334b 56be
000003e0: f32a 6e3d 8c76 5fbe a5e0 bfbe 2c06 b8be
000003f0: edea adbe 3c47 00bf bceb c0be dd8d cbbe
0.40386403 -0.113248795 -0.42260826 -0.40954694 -0.19098206 0.10310279 -0.5634321 -1.0742307
-0.63475144 -0.22199939 -0.39105004 -0.8828603 -0.28794366 -0.35714296 -0.2667145 -0.068427846
0.0083598085 0.27529663 -0.0014306579 0.012942316 0.24779235 0.45073494 0.48281747 0.23850138
0.19588414 -0.14761677 -0.03510602 -0.23627383 -0.61219335 -0.97008246 -0.5122325 -0.584007
-0.8163919 -0.3570154 -0.15837045 -0.1964205 -0.34376824 0.07728115 0.35196286 0.104671985
-0.3674313 0.17777736 0.3692984 0.1450003 -0.06038284 -0.006081473 0.21236943 0.11165367
0.26472694 0.040647417 0.036626823 0.119234145 -0.13476413 -0.70679563 -0.58793104 -0.34284586
-0.40733558 -1.1062739 -0.71129066 -0.2627168 -0.3446141 -0.28490123 -0.26547453 0.13868034
0.06717297 -0.71009696 -0.021109559 0.27875125 0.2693608 0.27598947 -0.3637611 0.208431
0.12306199 0.26350674 0.26218948 -0.23368563 -0.5086315 -1.0251445 -0.9509555 -0.92554086
-0.20186327 -0.5320718 -0.26537627 0.040138047 0.21373245 -0.3737953 0.36209545 0.2761428
-0.03998269 0.1293106 0.30583963 0.5126246 -0.07702677 0.34725997 0.011814213 -0.15850228
-0.48443115 -0.07061633 0.7547737 0.194801 0.055567402 0.09151517 -0.18959571 -0.100388154
-0.32303077 0.16506721 0.03902543 0.005990794 0.10619182 0.077883914 0.1559506 0.14824687
-0.17231384 -0.14968747 -0.15742074 0.24442393 0.103559315 -0.030076642 -0.041237824 -0.42766604
0.4012489 0.1674179 0.12299534 0.17620453 -0.22893716 0.18100882 -0.30696237 -0.3064362
-0.39915937 -0.57985556 0.37854365 0.10419055 -0.35088173 0.053666502 0.6168183 0.010133497
0.08563001 -0.12698592 -0.3933761 0.16902988 -0.44550076 -0.51707995 0.2912989 0.3433317
0.27227166 -0.6376935 -0.025779657 -0.3973604 -0.22913343 0.11824797 -0.33831218 -0.31072295
-0.43699563 -0.334893 -0.38501748 -0.39398396 -0.28817484 -0.35643145 -0.366078 -0.367823
-0.29198414 -0.059190545 -0.22015426 -0.31339306 -0.3668509 -0.20361362 0.04117021 -0.2542362
-0.3399853 -0.37414575 -0.25058165 -0.12791124 -0.25120094 -0.1864079 -0.3542226 -0.111642435
-0.17567642 -0.20422906 -0.2102719 -0.046423953 -0.11942123 -0.18711504 -0.28466803 -0.27431738
-0.21493259 -0.36521953 -0.21822114 -0.28180373 -0.29756722 -0.38038427 -0.22759512 -0.18278202
-0.3386005 -0.25693297 -0.29978773 -0.22401346 -0.13631728 -0.2805781 -0.39940864 -0.38548794
-0.4108433 -0.31313965 -0.16417336 -0.3010263 -0.21090426 -0.36089817 -0.24905974 -0.2790094
-0.29707104 -0.3142112 -0.30518192 -0.40110645 -0.25982586 -0.22575116 -0.36396918 -0.43127072
-0.36729363 -0.07266208 -0.3109402 -0.24449544 -0.36546806 -0.27656707 -0.16605522 -0.24421471
-0.2547151 -0.13557753 -0.26854578 -0.26208493 -0.3183022 -0.3239587 -0.3287348 -0.37732503
-0.23318484 -0.30002847 -0.22589548 -0.38220757 -0.31706822 -0.2899534 -0.09591109 -0.17899612
-0.2615053 -0.29767224 -0.37399274 0.06665311 -0.18327558 -0.27762866 -0.1978097 -0.20927124
0.05814643 -0.21822566 -0.37476078 -0.3594221 -0.33968297 -0.50108695 -0.3767985 -0.3975667

conv2.bias f4 [16]
00000000: 156c e3bc c617 a9be 8108 c43c 14dd 4a3d
00000010: 56d0 2cbe 816b af3e ebef 8f3e 5451 1e3d
00000020: 5f90 433e 49c5 363e 9084 313e 3454 9b3c
00000030: 27b0 a1bd 9a55 aabd 8f96 893e 0008 44be
-0.027761498 -0.3302595 0.023929836 0.049527243 -0.16876349 0.34261706 0.2811273 0.03865178
0.19098042 0.17848696 0.17335725 0.01896105 -0.078949265 -0.083171085 0.2687268 -0.19143677

conv3.weight f4 [120, 16, 5, 5]
00000000: d70c dfbd 8623 f2be 417d 1ebf a1ca b43d
00000010: c3f5 89be b1a9 d13d 865a 15be 9e97 7a3e
00000020: 4933 5b3e 5563 c43e abfb 913e 4e13 793d
00000030: 2898 083e ebbd 5e3f cbba 6f3f 8b7b 03bf
00000040: fc16 88be 1307 e1be 96d4 0d3f 706c 0d3f
00000050: 9d5b c8be b251 d6ba eee5 843e 626c 323f
00000060: 5abf b03e 421e 24be dc06 5c3e f8f7 c03e
00000070: c436 193d 70c6 ad3d 6aac 843e 89be 943e
00000080: 3d1c 3a3e 41f1 6d3e 6861 013f 436f 853e
00000090: 077d e73e 7ff7 48be aded cd3e ab49 803e
000000a0: bf23 9b3e 7f8a cc3e d65c b1bd c14d 7c3e
000000b0: 2cb2 a33e 8566 293e 6c68 603e 3dec 5a3e
000000c0: 0535 613e b392 b63e 4ae6 bcbe bc56 0bbf
000000d0: 2cf0 ddbe d3a6 f2be 3c6b a1be d9a0 4bbe
000000e0: 4d5c cabe 5a65 02bf 1367 1fbf cd39 64be
000000f0: 4405 233e 174c d9bd 9ceb 41bf 583c fabe
00000100: eb55 10bf 0895 61be 8524 c53d 93ce 41bd
00000110: 5ee7 04bf 93af 9ebd 3ec7 83be 6f0c 14bd
00000120: aff0 b43b 4d50 f8be 379d 1abf 67c8 02bd
00000130: 0cb5 c5bd 08cd 373e 3788 11bf 3621 0cbf
00000140: bb8f 0abe 9126 d63d 36b7 dc3d 0754 c23d
00000150: c176 a1be 82d5 5fbe 70ee 663d 1c9a 13be
00000160: cfa2 c0be 4bef 29bf 0757 d6be e7b2 07bd
00000170: d52d 4ebe 1769 cdbe 0958 07bf 16c2 e33d
00000180: 33d2 563e 8260 cf3e 0b97 8ebf 72bb 00bf
00000190: 92ec a4be d86c 923e 27e3 d43e c006 91be
000001a0: 0406 35be 3488 87be 1143 843e 2508 833e
000001b0: 5d51 e6be a929 7ebd 87fa 9ebe 95f3 68be
000001c0: 97e4 393e bcdd aabe e392 22bf 8e01 f7bd
000001d0: 6cba 4ebe 2b83 29be 0515 97be 5cff 38be
000001e0: 39eb e1be 60b9 8dbe cb78 083e 5681 adbe
000001f0: 3085 b73c 5008 223e ed11 593e f4aa f3bd
00000200: 8f52 dfbe e9b5 0d3e bd12 4e3d 5d40 c43e
00000210: 6164 883e f94c 2bbe 40f2 9f3e 71bb 85be
00000220: 978b f63e 1900 533e 9f7e b5be 3bc3 3abf
00000230: e500 ee3e 87ca 593e 6caf debd 90f0 f93d
00000240: 31cd bcbe 3de2 523d bbcc f53d 1e81 8ebc
00000250: 9ad3 a43c c646 373d 949a 603e 1e03 0bbe
00000260: bd94 383f 4f8a 323f 9c16 afbd 6391 99bc
00000270: d345 8f3c cd75 25be 9189 e93d 7326 823c
00000280: cee6 57be 3eb8 08bf c0e4 d23e c590 f63e
00000290: 1704 83be 6d5a 20bf d555 b8bc 0cec a43d
000002a0: b561 943b d722 783e 2605 df3d 84ce b23d
000002b0: 9b1f f3be 9905 2a3e 3ae3 25be 613c bb3e
000002c0: 4b90 a1be be00 973e 3d37 bd3c 1b8a 263e
000002d0: 2dab 44be 0431 1cbf 1f55 bc3e d2e3 82be
000002e0: 58fd 9abd 93b4 0abf 06bf 7a3e d94d 623e
000002f0: 18f6 2c3d 32a5 61be 72df 093e 51be 32be
00000300: fe14 c43d 85c4 c43e bb46 9cbe 579f 843e
00000310: cfa1 163e 37ab 9b3e a9cc 863e 75a2 d8be
00000320: 63df 44be c36e bdbe ed63 303d 48ba 26be
00000330: dbd3 44bf e7b8 0bbf 916c 64bf c793 c43c
00000340: 2ead 29bd 6288 65be 187a 8dbd c6d8 98be
00000350: a12a c83d 32e0 7dbc 3716 8b3e 82d9 343e
00000360: 6b09 2cbe 400b f13d 53cd 05bd b227 62be
00000370: 1ca5 5fbe 3a87 1dbf 4fcb 87be 7a84 bbbd
00000380: 207e 0fbf ba4f f3bc 7dd0 04bf 679c 57bc
00000390: 17bc a9be d497 523d 71cb 723d 9076 6cbf
000003a0: e16e c4be ae44 133f 01ed fe3d ca99 87be
000003b0: a5ad cbbd b631 8bbe 156c 473e b37b 08be
000003c0: 2a10 8e3d c450 c43e 9468 99bd ccf8 88bd
000003d0: 2bc4 98bb 73b0 1a3e 946d 50bd de39 333e
000003e0: f347 05bf 5340 4e3e 026d b5be 7f01 8abe
000003f0: 04ec d03e e780 fd3e 31bd e7be 784b 33be
-0.10891121 -0.47292727 -0.6190987 0.08827711 -0.26945314 0.10237444 -0.14585313 0.244719
0.21406282 0.38357034 0.2851232 0.060809426 0.13339293 0.8700854 0.936444 -0.51360387
-0.26580036 -0.4395071 0.55402505 0.5524359 -0.39132395 -0.0016351251 0.25956672 0.6969663
0.3452099 -0.16027167 0.21486992 0.37689185 0.037405744 0.084851146 0.25912791 0.29051617
0.18174835 0.23236562 0.50539255 0.26061448 0.45212576 -0.19625662 0.40220395 0.25056204
0.3030071 0.39949414 -0.08660285 0.24639036 0.31971872 0.16543014 0.21914834 0.2137918
0.21992882 0.35658798 -0.36894447 -0.5442922 -0.433473 -0.47392902 -0.31527126 -0.19885577
-0.39523545 -0.509359 -0.62266654 -0.22287674 0.15919977 -0.10610216 -0.75750136 -0.48874164
-0.563811 -0.22029507 0.09626106 -0.047316145 -0.5191554 -0.07748332 -0.25737947 -0.03614467
0.005521856 -0.48498765 -0.6039614 -0.0319294 -0.096536726 0.17949307 -0.5684847 -0.54738176
-0.13531391 0.10456575 0.10777132 0.09488683 -0.31535915 -0.2185879 0.056379735 -0.14414257
-0.37624213 -0.6638076 -0.41863272 -0.0331296 -0.20134671 -0.4011924 -0.52868706 0.11121003
0.20978622 0.40503317 -1.1139845 -0.5028602 -0.3221174 0.28598666 0.41579553 -0.28325462
-0.17678076 -0.26471102 0.25832418 0.2559215 -0.4498395 -0.06205145 -0.31050512 -0.22749169
0.18153606 -0.33372295 -0.6350538 -0.120608434 -0.20188302 -0.16553943 -0.29508224 -0.18066162
-0.44124773 -0.27680492 0.13327329 -0.33887738 0.022402376 0.15823483 0.21198244 -0.11897841
-0.43617675 0.13838924 0.05031084 0.38330355 0.26639083 -0.16728581 0.3123951 -0.2611957
0.48153374 0.20605506 -0.35448167 -0.7295415 0.46485057 0.21268664 -0.10873303 0.12204087
-0.368753 0.05148529 0.1200194 -0.017395552 0.02012043 0.04474523 0.21933967 -0.13575408
0.72101957 0.6974229 -0.08549234 -0.018746084 0.01748935 -0.16158219 0.11403192 0.015887475
-0.21084139 -0.5340613 0.41190147 0.48157325 -0.25589058 -0.6263798 -0.022501865 0.08052835
0.004528249 0.2423204 0.10889654 0.08730796 -0.4748505 0.16603698 -0.16199961 0.36569503
-0.315554 0.29492754 0.023097629 0.1626362 -0.19205923 -0.6101229 0.36783692 -0.25564438
-0.07567853 -0.54181784 0.24486932 0.22100009 0.04222688 -0.22035673 0.13464144 -0.17455412
0.095743164 0.38431183 -0.30522713 0.25902817 0.14710163 0.30404064 0.26328018 -0.42311445
-0.1922584 -0.36998567 0.043064047 -0.16281998 -0.76885766 -0.54579014 -0.8922816 0.023996247
-0.041424923 -0.22415307 -0.06908053 -0.29852885 0.09773756 -0.015495347 0.27165386 0.17661098
-0.16800468 0.11769724 -0.032666516 -0.22085455 -0.21840328 -0.61534464 -0.265223 -0.09156127
-0.56051826 -0.029701103 -0.5188063 -0.013159848 -0.33151314 0.051414326 0.059276048 -0.9236841
-0.38365844 0.5752667 0.12447549 -0.2648452 -0.099452294 -0.27186364 0.19474824 -0.13328438
0.06936677 0.3834287 -0.0749065 -0.06688079 -0.004662057 0.15106373 -0.05088575 0.17502543
-0.5206291 0.20141725 -0.3543473 -0.26954266 0.40805066 0.49512407 -0.4526153 -0.17509258

conv3.bias f4 [120]
00000000: 0443 893d a474 753d 6006 703d 3fde 26bf
00000010: 01a1 17bd 71ab c7be 8982 843e 98da 7abd
00000020: ef38 a9bc 9af0 09be 70c2 4c3d eea7 463e
00000030: 9e02 9b3e b71d a7bb 2793 94be 87b3 adbd
00000040: 7793 3d3d 5637 cdbe 7232 743d 2c19 a8bd
00000050: 42fb 93be 4ea7 31bc d1f5 0dbd fe82 d9bd
00000060: 4842 973e 6877 343e e22c 0c3e 9d8b 743d
00000070: 60fe 59bd 8c46 983d 5efa 993e 6b59 303e
00000080: 5fbc 19bf 602c bd3e 7d75 9a3e bbdc 56be
00000090: 7603 8e3d 2794 45be 3d62 4dbd 2159 00be
000000a0: bcdd f33d 92af 49bd a6d9 80bd 4627 7abd
000000b0: d118 afbd ba1f bcbc 0754 32bd 38ae 973e
000000c0: e9d5 d73e 59ad b8bd 623b d1bd 3003 44bc
000000d0: 0ace 17bd 4d73 34bd 6f0c 8d3d 38c1 d8bd
000000e0: ebbb b0bd e624 273e 8c93 d7be 6c66 0c3e
000000f0: 9451 14bd 9daf 4b3e 3d9d d8bd 8eb5 a2be
00000100: ecb9 b2bd de87 92bc 7f99 a6be 9438 f1be
00000110: efd5 b1be 328a 60be 2334 8ebd 0348 26bd
00000120: e50d 88bb c4f2 863e f7b4 a6bd f52d 4f3d
00000130: 2a13 b5bd fbed 8dbd 89e6 3bbf bd98 ccbc
00000140: 011f 9fbe 8f7a 5bbd 7c36 063f a0a8 1cbe
00000150: 1ec2 183c 075b b53d 462c 22bd c727 4d3b
00000160: 2c4b 80bd 563e 0bbf 448b 38bd b68f 94bd
00000170: a21f 81bd 6beb 283e 71a3 c7bd c98b b7bd
00000180: b8de 71bd dfc7 5fbe 2555 5d3e e5ba b8bd
00000190: b37e b7bd 57e0 983e 5370 c93c ba93 373e
000001a0: e477 fdbe c084 a3be 22f8 0dbd e1ce d4bd
000001b0: bc48 863c d827 a8bd c0e4 f93d 8959 8dbe
000001c0: 04b1 b9bd 566a 18bf 3d59 ccbe 2567 13bf
000001d0: 097f a4bd 9a15 8abd 7851 5c3e bfac 95bd
0.06702235 0.05992569 0.05859983 -0.6518287 -0.03701878 -0.38997987 0.2588084 -0.061243623
-0.02065703 -0.13470688 0.049990118 0.19399998 0.30275434 -0.005099978 -0.29018518 -0.08481508
0.04628321 -0.4008128 0.05961842 -0.08207926 -0.28902632 -0.010843111 -0.034658257 -0.10620688
0.29542756 0.17623675 0.13688996 0.059703458 -0.053221107 0.07435331 0.30073828 0.1722161
-0.60053056 0.36947918 0.3016776 -0.2098264 0.06934254 -0.19294797 -0.050142515 -0.12534
0.11907527 -0.049239703 -0.06291513 -0.06107261 -0.08549655 -0.022964347 -0.043537166 0.29625106
0.42155388 -0.090174384 -0.102164045 -0.011963651 -0.03706173 -0.044055272 0.06887137 -0.105837286
-0.086295925 0.1632267 -0.42104757 0.13710946 -0.03621061 0.1989121 -0.10576866 -0.3177914
-0.08726868 -0.017887052 -0.32538983 -0.47113478 -0.3473353 -0.21927717 -0.06943538 -0.04059602
-0.004152047 0.2635709 -0.08139985 0.050580937 -0.08841546 -0.06930157 -0.73398644 -0.024975175
-0.31078342 -0.053583678 0.52426887 -0.152987 0.009323625 0.08855253 -0.039593004 0.0031304227
-0.06264338 -0.5439199 -0.04505469 -0.07253973 -0.063048616 0.16496055 -0.09747971 -0.08962209
-0.05905029 -0.21853589 0.21614511 -0.09020022 -0.08959713 0.29858658 0.024589693 0.17927447
-0.49505532 -0.31937218 -0.034660466 -0.103910215 0.016392104 -0.082107246 0.12201834 -0.27607372
-0.09066966 -0.59537256 -0.39911833 -0.5757926 -0.080320425 -0.067424014 0.21515453 -0.07308339

lin1.weight f4 [84, 120]
00000000: d2e2 d0bd 1178 973d 9088 8bbe 853d 9bbe
00000010: 0d43 edbb c476 973e 88b6 08be 5ad1 5bbd
00000020: f258 0fbe 7adf ba3e 62ba 353e 9d88 103e
00000030: f235 663e ab46 59be 4fa5 ec3d ffd3 60bd
00000040: 43d8 f93d d819 abbe 3ad6 93bc 1b14 a63d
00000050: 861a 4c3d 704d 413f 7411 a6be 94d9 193e
00000060: 3073 a33e 4268 343e afd7 4dbe b0de f73c
00000070: e58a fdbc 32ac 9d3e bbc8 f3b9 1c91 a13e
00000080: 86e1 fabe 9a59 653e 2bdf d3be f97d 8f3c
00000090: 7ddf a6be 6578 06be 6518 51bd 86c1 8a3e
000000a0: bdc5 6abf 7013 d5bc c603 ddbd 1ba1 0e3e
000000b0: 1e5e c63c 7dc0 75bc 0162 ed3d e362 c7be
000000c0: f44a 92bd a124 7f3e a611 03bf 18f3 4dbf
000000d0: be6f 06be e1af 0ebc 4be7 c13d 17c4 f7bd
000000e0: 42b7 1b3d b7d1 0e3f fb8b 713e b665 a0bd
000000f0: ce55 d0bd e505 19be ea30 ebbc 1c03 acbe
00000100: 6e11 09bc 33f0 27be 83cd f2be 0e2c bf3c
00000110: 4a68 03be 49ab 293d 354a 6ebd 088d 90bd
00000120: f885 6a3d f8da 88be 9ee0 2abd 51af 0fbe
00000130: 3f70 c1bd bfcc 7b3d 564f 44bf 43dc 0f3f
00000140: 2183 65bd 2a77 003e 2c89 af3e d2cb c3bd
00000150: 7d1c 5b3e 527b 04bf 1f4c e53d 5116 ee3d
00000160: 046f ae3c 2b03 90be cdcd 4ebe 16b0 45bd
00000170: 8b87 44bd 379a 1fbf 50f9 463d 6dfb 893d
00000180: ee43 033e 2f24 a4be 8e67 533e 6264 cfbd
00000190: 10fa 703e 4413 1ebf 26d6 45bd 5de0 873d
000001a0: 3fc6 ee3d 9a05 27bd 70c9 a33e 7f18 a33d
000001b0: 2197 a63d 8763 a7bd 6754 dfbe 88f1 273e
000001c0: 7a0c 8a3c 991f b0bd 2709 e73d 44d2 583e
000001d0: 717c 713d 4a91 a03d 4473 92be 7b9d b23c
000001e0: 4adc 743e bd56 023e 2dc6 d7bd d051 f0be
000001f0: fe12 a43d ec5f ff3e ece1 1b3e e855 86bd
00000200: 3c7f 0dbc 6c7c ccbe 2e87 58be 86bc 6dbe
00000210: 8d02 e9bd 2f93 55bd 4c85 30bd 2780 723b
00000220: 6e64 acbe 8dac 8cbe 78ff 0d3e e8a1 753c
00000230: fda0 a1bc b085 e33d ad65 debe 3b74 09be
00000240: 1100 f53d 550b 18be 3957 4cbd 9d5d db3e
00000250: be33 443d c944 44be d71e b63e face 2e3e
00000260: ce7b 0abf 2a36 e2bd 820e 723e bb38 11be
00000270: 6cf2 623d f1f5 83be 6f42 c6bc acb1 6dbe
00000280: 8c14 683e c191 f43d 6028 293c cac2 1fbe
00000290: 90f4 32bc 6062 113b 2178 9fbc 9dcf 07be
000002a0: 7ef7 b4be fe57 193d 6ec0 013e cf5e 74be
000002b0: e809 0ebe 4cfe 533c 1660 9ebe da63 253c
000002c0: cc86 b63d 0302 ba3e 0b38 873e 917c 6fbb
000002d0: bf36 18be 1046 5fbe 772d b2bb 9baa 463e
000002e0: 8b61 7fbd 858f 9abe 9f8f 2fbf a846 173e
000002f0: f277 ebbd fc61 e9bc 93e9 c73d e643 14be
00000300: ed3e 04bd d070 2d3d 096c cbbd 2951 a93d
00000310: 6468 6f3d 2ba7 51bd 7707 d6be 072d 05be
00000320: ce74 13be a722 0ebe d92c de3e fcc6 2abe
00000330: 0b20 283e 825b 6e3e 6808 0a3e 6580 313e
00000340: d2bf c73d bcff 2b3e af5d 853d d93a e5bc
00000350: 1f7f cabd 4b9f a3bd 441b 063f 76fc 1e3d
00000360: 945b a93c 9a64 e53d 6f53 7c3e db69 d53d
00000370: 1b0e 213e 43fc f8be 855e a7be 9f3d bf3e
00000380: 8eb8 08bf fea4 15be d199 ba3e d864 243e
00000390: 616a 80be 171c 42bc d31e 4fbe 5a32 7e3e
000003a0: 3e4a dabc 875d 1d3d 04b2 ffbd 5ec6 ef3d
000003b0: 855a e5bc c7dc ffbe 9cdb 1dbe 919a ecbd
000003c0: 496e 68be 9f42 153f 3b3c 1abf 542f 923a
000003d0: 39c9 9c3c d206 39bd c59d 10bf 6c00 ad3d
000003e0: cde7 f53d 5bf8 02bf a28e 6c3e 7d9d edbc
000003f0: d2fe 533e 3d28 51be d91e 7bbc 0a88 32bd
-0.101995125 0.07395948 -0.27252626 -0.30320373 -0.007240659 0.29582798 -0.1335088 -0.05366645
-0.13998774 0.36498624 0.1774688 0.14114614 0.22481516 -0.21218364 0.115549676 -0.054889675
0.12199452 -0.33418155 -0.018046487 0.081093036 0.049829982 0.75508785 -0.3243519 0.15024406
0.3192382 0.17617896 -0.20101808 0.030257553 -0.03095002 0.30795437 -0.00046498128 0.31556022
-0.49000186 0.22397462 -0.413812 0.017516123 -0.32592383 -0.13131864 -0.051048655 0.27100772
-0.91707975 -0.026010245 -0.10791735 0.13928644 0.0242148 -0.014999506 0.115909584 -0.38942632
-0.071432024 0.24916317 -0.51198804 -0.80449057 -0.13128564 -0.008708925 0.09467944 -0.12097948
0.038016565 0.5578875 0.23588555 -0.078319 -0.10172616 -0.14943655 -0.028709847 -0.33596122
-0.008365972 -0.16400222 -0.47422418 0.023336437 -0.12832752 0.041423116 -0.058176238 -0.070581496
0.05725667 -0.2672956 -0.041718118 -0.14031722 -0.09445237 0.061474558 -0.7668356 0.5619547
-0.056033257 0.12545457 0.3428434 -0.0956036 0.21397586 -0.5175067 0.111961596 0.1162535
0.02129317 -0.28127417 -0.20195694 -0.04826363 -0.047980826 -0.6234469 0.048577607 0.06737409
0.12818882 -0.32058856 0.20644972 -0.101265684 0.23532891 -0.61748147 -0.04829993 0.06634591
0.11658906 -0.040776826 0.31989622 0.07963657 0.08134294 -0.0817328 -0.4361908 0.1640073
0.016851652 -0.08599777 0.112810425 0.2117396 0.058956567 0.07840212 -0.28603566 0.021803608
0.23912159 0.127284 -0.10535846 -0.46937418 0.08011435 0.4987787 0.15222901 -0.06559354
-0.008636292 -0.39938676 -0.21145317 -0.23216447 -0.1137744 -0.05214232 -0.04309587 0.0037002654
-0.33670372 -0.27475396 0.13866985 0.014992215 -0.019730086 0.11109483 -0.43436947 -0.13423245
0.11962903 -0.14848073 -0.04988787 0.4284486 0.047900908 -0.19166864 0.35570404 0.17071143
-0.5409516 -0.11045487 0.23638347 -0.14181797 0.055406973 -0.25773576 -0.0242016 -0.23212308
0.22664088 0.11941863 0.010324568 -0.1560165 -0.010922566 0.002218388 -0.019466462 -0.13262792
-0.35345072 0.03743743 0.12671062 -0.23864292 -0.13870966 0.012939047 -0.30932683 0.010094607
0.08912429 0.3632966 0.26409945 -0.0036542753 -0.14864634 -0.2180407 -0.0054375487 0.19401018
-0.062348884 -0.30187622 -0.68578523 0.14773047 -0.11497487 -0.028489105 0.097613476 -0.14479026
-0.032286573 0.042343915 -0.099327154 0.08267433 0.058449164 -0.051184814 -0.4180257 -0.13005458
-0.14400026 -0.13880406 0.4339359 -0.16677469 0.16418473 0.23277095 0.13479769 0.17334135
0.09753384 0.16796774 0.06512009 -0.027982162 -0.09887528 -0.07989367 0.52385354 0.038814984
0.02067355 0.11200829 0.24641202 0.10420581 0.15728037 -0.4862996 -0.326893 0.373517
-0.5340661 -0.14613721 0.36445478 0.16054094 -0.2508116 -0.011847517 -0.20226602 0.24823895
-0.02664673 0.038419273 -0.12485126 0.117077574 -0.027997265 -0.49973127 -0.15415806 -0.11552919
-0.2269832 0.5830478 -0.60248154 0.0011153021 0.01913892 -0.04517252 -0.5649074 0.08447346
0.12007103 -0.5116021 0.23101285 -0.02900576 0.20702675 -0.20425506 -0.015327179 -0.04358677

lin1.bias f4 [84]
00000000: 6dee 823e 2f39 843e e6af 94bd f43e b33d
00000010: 6906 b5bd 0356 00be 8658 6abe 3ea8 98bd
00000020: 5400 10be 2c96 b83d 58b4 b7bd c7e7 583e
00000030: 5907 86bd cc4e 90be 3803 133e 03aa 203e
00000040: 37fe 70bd f995 493e d30f bebe 9c4f 593e
00000050: 82d0 fd3b 9d26 863e eb8f 803e 19a7 9abc
00000060: d368 c7bd 8d7a 123e 211c fd3d 3250 52bf
00000070: 562a cbbd ee22 ba3e 6289 16bf f670 49bb
00000080: 9857 1a3e a519 88bd 397e 17be 2c36 873e
00000090: 4c5b 1c3d 98e1 38bf b072 e43c 3df1 253d
000000a0: 7994 273d 8233 eb3e 45fa a7be 582f 37be
000000b0: fdc1 093e 32bd 32be a401 58be e646 a43e
000000c0: 977e 8c3d 6d9e b83d 1148 36be 97bd 4cba
000000d0: 11f1 c7be ba35 7bbe 7452 373e 004a 233e
000000e0: e7b3 23bf 76dd 2abf 7d3b be3e d360 f3be
000000f0: 12e7 3fbd 930f 9dbe ccca 313e af82 ab3e
00000100: 3fac 743d 8ec2 50be 8751 85be 2653 2cbf
00000110: 13d8 32bf 7d3d acbe 855a 14bf ae63 3d3e
00000120: 9c1e b33e fcf1 ffbe 7313 2fbe f631 193e
00000130: 866b e73e 3d56 e2be 2147 24bf 578c 0ebf
00000140: 4190 1ebd 7b61 3bbe 2587 d93e a703 36bf
0.2557253 0.25824878 -0.072601125 0.08752242 -0.08839113 -0.12532811 -0.22885332 -0.07453965
-0.14062625 0.09013018 -0.08969945 0.21182166 -0.0654437 -0.28185117 0.14356697 0.15689854
-0.05883619 0.19686116 -0.37121448 0.21221775 0.0077458033 0.26201335 0.251098 -0.018878506
-0.097367905 0.14304562 0.12358881 -0.8215362 -0.09920184 0.36354774 -0.5880338 -0.0030737496
0.15072477 -0.06645516 -0.14794244 0.26408517 0.038173005 -0.7221923 0.027886719 0.040513266
0.04091308 0.45937735 -0.32808128 -0.17889154 0.13452907 -0.17454985 -0.21094376 0.3208534
0.068600826 0.09014592 -0.17800929 -0.00078102335 -0.39051107 -0.24532214 0.17902547 0.15946198
-0.63946384 -0.6674417 0.3715476 -0.4753481 -0.046851225 -0.30675945 0.17362517 0.3349814
0.05973458 -0.20386717 -0.26038763 -0.67314374 -0.69860953 -0.33640662 -0.5795062 0.18495056
0.3498429 -0.49989307 -0.17097263 0.14960465 0.4519922 -0.4420642 -0.64171034 -0.5568289
-0.03871179 -0.18298905 0.4248592 -0.71099323

lin2.weight f4 [10, 84]
00000000: 8ce4 8dbe 5cf3 e4bd 1054 e93c 6d16 bdbe
00000010: e15c 913d 1e6a ea3d 9d40 ddbe 02c7 903e
00000020: 0a8d 25be 8e9f 3b3c 08df 97be 15c9 d63d
00000030: 1525 0dbe 2d04 7dbe 8359 8ebe 4936 5ebe
00000040: 7ceb fd3d 6027 c7be 5725 c1be 2075 2e3e
00000050: ae8f d4bc bdbd 3fbd d70d 2abe b75d cb3c
00000060: 3644 68be 91ac 95be b1e1 3f3e 1a0d 63be
00000070: 3ae3 23be bfb2 403c 82d6 623d 3bc6 ec3c
00000080: ea6c 98bc dc12 adbd 0bdb 15bf 8e0f bebe
00000090: f13b 913e f3a1 a03d f03f 9c3d 43d8 12bf
000000a0: df65 b13d 92a3 6e3e a69e 6dbd d5b0 21be
000000b0: b62f 8f3d 16a9 b83d e6d4 dc3d 9713 e03d
000000c0: 2003 25be dadc ccbe 1d4c fd3d 66ff 4dbe
000000d0: de8e d7bd 1ff8 62be 4e3f 05be 92d3 e7be
000000e0: e621 0ebe 1b7b 43be 601b 513e 6163 6cbe
000000f0: b5d2 06bc 70b1 48be 8f29 953d 2de3 b7bd
00000100: 8580 bbbe 3a2e a63d a9ba 44be 126f 16be
00000110: 24f1 7a3e 977f f73d 1ae4 35bd 2baf 423e
00000120: d42c 0c3d 9750 55be c30c 893d 0bee 84be
00000130: 7a60 343d ec9d c8bc beb3 20be ded2 e53c
00000140: 8934 953d b0db d43e 05db c7be f52f 39be
00000150: 01cd f83b f421 713e 61e4 813c af24 a23e
00000160: fd4b c6be b623 3ebe b751 dc3c c233 c9be
00000170: a16e 9abe 4f45 b53d 8fca 10bf df87 71be
00000180: 98d3 0abc 564f 47bf 37e1 8f3e fd7e 30bd
00000190: a87a b53c a855 d1bd d92f f6bc 8240 0abe
000001a0: 07f4 b73e bca6 1dbc 8221 9c3e 2a85 50be
000001b0: 91f4 7ebc 5d38 44be 6365 85be 5565 a2be
000001c0: a14f 68bc ad3d 6dbe 8f1c 43be 4d76 66be
000001d0: cb3f 313d 1284 01be 5b59 50be 1301 21be
000001e0: 75d0 75be 0024 f7be 5660 5b3e 1e52 2abe
000001f0: 329b 0d3e a5d1 b23b 39eb 7a3c 2f3f c5be
00000200: 07a6 163e 380b 76be ee23 ebbe 3406 91be
00000210: 4719 0d3f 1ea4 79bc 12a0 5dbe bcaf 663e
00000220: 6463 0ebe 90ca b3bd eabc 66be ad02 803d
00000230: 390d dc3d 316b 6cbe 3ed9 e83d efc3 87bc
00000240: 64d2 193e e1ce 35be fd0b cc3d 6b43 343e
00000250: fdd2 b43c 67a4 92bd f05f 6fbe e034 bbbe
00000260: cbed d6bc bbbf 4a3d 8506 103e cafa b63e
00000270: d9b7 f6bd 0b03 3e3d 15bb 46be d220 853d
00000280: c331 973e 5f8e 5abf 3768 d8be a57d f8bd
00000290: 7560 d03d 48b8 4dbe a0a1 3e3e 5354 bbbd
000002a0: d183 873e 6403 023e 50ca 61be 2231 8f3e
000002b0: 518b e33d 8380 dfbd 8b49 0abe 15e3 a8be
000002c0: aba8 9cbd 291d 593d be53 16bf d6e8 0abe
000002d0: c7b0 8abd dd20 7c3d f070 94bd d5a3 a9be
000002e0: e4e7 15be 418b 0d3e 1306 00be c191 0cbe
000002f0: 8571 1cbe 7b4b 8a3e 48af 90bd 0a2e ba3d
00000300: 0bf1 1b3e 5d72 563e a567 e73d 0fbf 373e
00000310: c42a f33c afdb 233d f210 ebbe f57f 2c3e
00000320: d991 113d 76c5 003e 88a9 333e 7820 eb3d
00000330: 68dd a4be 03d7 e3bd 8a64 0bbe ee46 e93d
00000340: 6061 51be 0089 5fbe 3f8d 53bd 0234 b5be
00000350: 3d08 283e 4091 2abe 6de1 17be 7503 233c
00000360: e428 a43d eb9f 4c3e 5fa4 5bbe 86a7 56be
00000370: 8d07 ce3d aa4d bbbe b31f 8abe 820b 43bd
00000380: 9aec 71be 9fb9 00bf 527b 32be 582e f3be
00000390: c57a 34bd 6636 6fbe d364 35bc 085c e4bd
000003a0: 9d84 e8bc 2f7c c8be 2d43 b3be f01a 0fbe
000003b0: 091d 1cbd 1bd8 443d 0779 3cbe 7c2a d3bb
000003c0: e256 2dbe 470c 9bbe 811a d9bd 3cf6 19bd
000003d0: fef3 96be daef d5bd 4cfd d6be 65d9 573e
000003e0: 5521 563d 2217 4ebe c41c 0e3e 247c 1dbf
000003f0: 3b17 f03c dfa0 64be ee17 313b 011d 26be
-0.2771343 -0.111792296 0.028482467 -0.36931172 0.07097793 0.114460215 -0.4321336 0.2827683
-0.16167083 0.011451615 -0.29662347 0.10487572 -0.13783677 -0.24708624 -0.27802667 -0.21700396
0.12398431 -0.38897228 -0.377238 0.17036867 -0.025947418 -0.046811808 -0.16606842 0.02482496
-0.2268227 -0.2923322 0.18738438 -0.22172967 -0.16004649 0.011761366 0.05538035 0.028903117
-0.018606622 -0.08450863 -0.5853736 -0.37121242 0.28366044 0.07843389 0.076293826 -0.5736124
0.086620085 0.23304585 -0.058012627 -0.15790112 0.06991522 0.090166256 0.10782795 0.109412365
-0.16114473 -0.40012246 0.12368033 -0.20116958 -0.10525297 -0.22164963 -0.1301243 -0.45278603
-0.13880119 -0.1908993 0.20420599 -0.23084785 -0.008228947 -0.19598937 0.07283317 -0.08978877
-0.3662149 0.08114286 -0.1921183 -0.14690807 0.2450605 0.12084883 -0.044406988 0.19012134
0.03422244 -0.20831524 0.06691887 -0.25962862 0.04403732 -0.024489366 -0.15693566 0.02805465
0.07285411 0.41573858 -0.39034286 -0.180847 0.0075927977 0.23548108 0.01585597 0.31668612
-0.3872985 -0.1856831 0.026894433 -0.392973 -0.30162528 0.0885111 -0.5655908 -0.23586987
-0.008473299 -0.7785543 0.28101513 -0.043089855 0.022153214 -0.10221416 -0.030052112 -0.1350117
0.35928366 -0.009622272 0.30494314 -0.20363298 -0.015561239 -0.19162126 -0.26053914 -0.31717935
-0.014179141 -0.23168059 -0.19053863 -0.22506066 0.04327373 -0.12648037 -0.20346586 -0.15723066
-0.24005301 -0.48269653 0.21423468 -0.16632888 0.13828734 0.0054571205 0.0153148705 -0.38524768
0.14711772 -0.24027717 -0.4592585 -0.28325045 0.55116695 -0.0152368825 -0.21643093 0.22527975
-0.13905102 -0.0877887 -0.22533002 0.0625051 0.107447095 -0.23087765 0.11369561 -0.01657292
0.15021664 -0.177547 0.09963224 0.17603843 0.022073263 -0.071602635 -0.23376441 -0.36563778
-0.026236435 0.049499255 0.14064987 0.35738212 -0.12046785 0.04638962 -0.19407304 0.065004006
0.29530153 -0.8537349 -0.4226701 -0.1213334 0.10174648 -0.20089829 0.18616343 -0.09146943
0.26467755 0.12696606 -0.22049832 0.27967173 0.11110557 -0.109131835 -0.13504617 -0.3298575
-0.07649358 0.053006325 -0.5872153 -0.13565382 -0.06771999 0.06155478 -0.072481036 -0.33132806
-0.1463924 0.13822652 -0.12502317 -0.13727476 -0.1527768 0.27010712 -0.07064682 0.090908125
0.1522867 0.20942064 0.112990655 0.17943977 0.029683478 0.04000443 -0.45911366 0.16845687
0.03553948 0.12575325 0.1754514 0.11480802 -0.3220017 -0.111249946 -0.13612571 0.11390482
-0.20447302 -0.21829605 -0.051648375 -0.3539124 0.16409393 -0.16656971 -0.14832087 0.009949555
0.08015612 0.19982879 -0.21449421 -0.20962343 0.10060034 -0.3658269 -0.2697731 -0.047618397
-0.23625413 -0.50283235 -0.17429855 -0.47496295 -0.044062395 -0.23360595 -0.011071402 -0.11150366
-0.028383547 -0.39157245 -0.3501219 -0.1397512 -0.038113628 0.048057657 -0.18405543 -0.0064442735
-0.16927674 -0.30282804 -0.10600758 -0.037588343 -0.29483026 -0.10446139 -0.41990125 0.21079023
0.05227788 -0.20126012 0.1387816 -0.6151755 0.029307952 -0.22326992 0.002702232 -0.16222002

lin2.bias f4 [10]
00000000: 2b65 0f3e fa91 8c3e 4600 c2bc 9fe1 d13a
00000010: 093d acbe f8c4 c9be cfa1 913d 5104 e13d
00000020: 121e 95bd fbfb 87bd
0.14003436 0.2745512 -0.023681771 0.0016012675 -0.33640316 -0.39408088 0.07110941 0.109871514
-0.07281126 -0.06639858

exp_avg f4 [6, 1, 5, 5]
00000000: 805f 613a 475e a13b 9bfd ba3b f0ce 1c3b
00000010: 11ec fcba 2d76 c939 45e9 873a 46f8 0f3b
00000020: 8326 ce3a 9892 61b9 7a3c 00ba 81df 02bb
00000030: 2757 0ebb f278 fa39 a933 733a 2478 c2ba
00000040: e2dc 51bb 6ffb 6abb ac7e 03bb ad0e 23ba
00000050: 1711 55bb da2e 6dbb 68e2 29bb ed43 17bb
00000060: a3a2 05ba 8d37 cc3a 26d8 943a 4afb 2f3a
00000070: ab93 383b c280 473b 4ee9 b33a e645 87b9
00000080: 1c6c 25bb 4253 1139 4608 b33a 8ad5 e539
00000090: 4765 99ba f04e 77bb 5df4 0abb e87a e039
000000a0: 212d 8f3a b2ca f9b9 aeb5 2abb d238 eeba
000000b0: 1e2b be38 ed9d 373a d34a 41ba f6e5 34bb
000000c0: 47ea 5cbb 3e02 f539 3b75 dcba eaa6 72b6
000000d0: 42f6 88ba ba46 7bbb 4dc4 83bb e1e2 b8bb
000000e0: b932 2abb 4033 97bb 9bbe c9bb bf8b 32bb
000000f0: 3107 86bb f49c 11bb 6ecc 92bb 719f 6abb
00000100: 2c8e 353a 7010 57bb cc6a 26bb 0b94 eeba
00000110: 6e8e 423a 4528 873b b2b9 c1bb b45d 83bb
00000120: 6110 613a 55c1 6e3b 1eca ab3b 2a1b c5bb
00000130: 1855 8bbb 388a edba 15f4 b9ba 218d e7bb
00000140: 15e7 1abc 5151 e1bb f912 9bba fdb7 dcba
00000150: b79c 15bc fe07 23bc abc8 b6bb e57c 16b9
00000160: bdc9 2bbb 48a1 40bc c06d 0bbc 93f8 40bb
00000170: 6f95 a039 efa4 9cbb 464f 39bc 71ae b6bb
00000180: 7039 10bb b3bf c838 9bd1 7abb ae50 dcbb
00000190: 4829 4c3a d8a7 2239 b965 ccba b1b7 37bb
000001a0: 3597 90bb 926c d339 00e5 5239 43a1 8eba
000001b0: 9c6b 81bb a767 13bc e436 8939 4d94 0438
000001c0: 5ade 42ba b68d 65bb ce13 3abc 803d 5cb9
000001d0: 3677 01b9 4137 a2b9 ff26 18bb ec7c 27bc
000001e0: 44ee 35ba 2715 2ab9 98ca 4e39 7412 9e39
000001f0: ea61 b0bb dc78 8b3b 05de b93a 0f90 ecb8
00000200: da3b 0cba 105c c1ba 7c56 003c cb24 673b
00000210: 1580 a83a 624d 9939 983f a939 e588 403c
00000220: 1089 d43b 987b a63a 15b4 a4b9 3f15 05b9
00000230: e675 463c 21c0 d43b dea5 683a b1df ebba
00000240: f66f bcba 18c6 183c a9c4 ae3b 44fe 243a
00000250: 94a5 3abb 0a58 1bbb
0.00085972995 0.004924569 0.0057065017 0.0023927055 -0.0019296427 0.00038425755 0.0010369202 0.002196805
0.001572803 -0.00021512283 -0.0004891824 -0.0019969644 -0.0021719427 0.00047773827 0.00092774123 -0.001483683
-0.0032022526 -0.0035855433 -0.0020064516 -0.00062201434 -0.0032511407 -0.0036191256 -0.0025922302 -0.0023081258
-0.0005097782 0.001558052 0.0011355921 0.0006713165 0.002816419 0.0030441736 0.0013726146 -0.00025801285
-0.002524144 0.00013859294 0.0013659082 0.00043837383 -0.0011703157 -0.003773626 -0.002120278 0.00042816182
0.0010923484 -0.00047644 -0.002604823 -0.0018174893 9.067937e-05 0.0007004429 -0.00073735154 -0.0027602888
-0.0033708976 0.00046731712 -0.0016819605 -3.6157967e-06 -0.0010449367 -0.0038341717 -0.0040212036 -0.0056422804
-0.0025970174 -0.004614264 -0.006156755 -0.002724394 -0.0040902128 -0.0022218795 -0.0044799363 -0.00358006
0.00069257873 -0.0032816194 -0.0025393246 -0.0018202079 0.00074217364 0.0041246735 -0.005912029 -0.004008973
0.00085855095 0.0036431153 0.0052426 -0.006015201 -0.0042520873 -0.0018122857 -0.0014187122 -0.0070663844
-0.009454508 -0.0068761487 -0.0011831216 -0.0016839501 -0.009131602 -0.009950636 -0.0055781207 -0.00014351642
-0.0026212775 -0.011757202 -0.008510053 -0.0029445037 0.00030628915 -0.004780404 -0.011310404 -0.0055749943
-0.0022006892 9.57245e-05 -0.0038271907 -0.006723485 0.0007788134 0.0001551205 -0.001559428 -0.0028033073
-0.0044125565 0.00040325947 0.0002011247 -0.00108818 -0.0039495956 -0.008996881 0.00026171573 3.160937e-05
-0.00074336457 -0.0035027093 -0.011357261 -0.00021003745 -0.00012346808 -0.00030940215 -0.0023216603 -0.010222655
-0.00069401064 -0.00016220343 0.00019721163 0.00030149857 -0.005382766 0.004256351 0.0014180547 -0.0001128019
-0.0005349495 -0.0014752168 0.0078331195 0.0035269733 0.0012855554 0.0002924009 0.00032281573 0.011751388
0.0064860657 0.0012701629 -0.0003141469 -0.00012691783 0.01211307 0.00649263 0.0008874814 -0.0017995742
-0.0014376629 0.009324573 0.0053335023 0.0006293992 -0.002848004 -0.0023703598

exp_avg_sq f4 [6, 1, 5, 5]
00000000: 76eb 8d39 8beb cc39 c58e 0c3a f12f fc39
00000010: 72b2 9239 d38e 0939 646a 6739 26da f639
00000020: 54a0 113a e2ac b739 bf05 8238 c596 f238
00000030: c9b6 c339 9ebc 143a 44b1 d639 4f81 9438
00000040: 26b3 fa38 bd38 b039 8aae 063a 4e62 d839
00000050: c28e fa38 cce7 1f39 542d a639 e0a8 e739
00000060: d93e c739 669e e538 335b da38 43dc 4e39
00000070: 4843 d039 f51b 123a add0 b638 0675 c438
00000080: 5410 5a39 ea43 df39 5c8b 1d3a c13a 2239
00000090: c72f 3139 47a0 a239 d41e 063a 09cb 2b3a
000000a0: 5fb8 d439 e267 c739 4f85 013a 8dec 233a
000000b0: c398 373a 9376 403a f151 233a 60e2 263a
000000c0: cfb8 323a 4724 333a 529c ff39 b3be 083a
000000d0: 69c7 043a fa5b ea39 8138 c439 723c 053a
000000e0: 7f1f 123a 5a42 083a 1790 d739 450d b039
000000f0: 619f f639 0afe 0e3a 1f02 033a caed c639
00000100: 70bd aa39 f80e ea39 802e 093a b52b f739
00000110: 487b c339 2d7f a839 c52d f339 350e 023a
00000120: 2269 e639 4fdf bf39 036f a539 1c43 2c3b
00000130: 9d8b b03a 4534 9639 b398 5a38 d469 9a39
00000140: 4353 163b 3913 5b3a 50f5 7638 dbb4 bf37
00000150: 485f d839 8f58 f53a edf5 f239 514d 3637
00000160: ad20 4f38 3efa 3c3a 0e04 ba3a 7e20 9539
00000170: 6cdf 2137 89a6 5439 f25f 9d3a fd07 8f3a
00000180: b975 8839 c09e c738 3959 243a e02f d33a
00000190: 18c7 f536 593f cf36 47bd 9238 1350 a639
000001a0: 0161 273a 910b c135 03cb 3e35 663e e237
000001b0: 9e01 7939 2547 1b3a 33c6 c835 d01e 0b35
000001c0: f2f5 6a37 22ca 4839 f8ec 143a c289 f935
000001d0: 43c5 2135 76bf 3a37 9939 3f39 3dee 183a
000001e0: 4717 9436 ea77 b335 b391 c437 b52d 7a39
000001f0: 3b65 273a d348 8b3a cb7e 233a 9fd9 8e39
00000200: 0817 5039 95d9 9639 7460 853a ec9c f039
00000210: ac67 a438 994c ab37 c14c 6538 dfdf 883a
00000220: 4d24 cb39 5e72 1938 a39c 2a36 6368 1b37
00000230: 72ca 913a 1614 fb39 ab5d df38 62dc fe37
00000240: 2d32 2938 9327 913a 76c1 353a 5e3c be39
00000250: d38b 6439 202f 4339
0.00027069048 0.00039085405 0.00053618505 0.00048100905 0.00027980242 0.00013118544 0.0002206951 0.0004708331
0.0005555202 0.00035033288 6.199953e-05 0.00011567542 0.00037329484 0.0005673858 0.00040949334 7.0812755e-05
0.00011954298 0.0003361161 0.00051377027 0.00041271973 0.0001194752 0.00015249773 0.0003169576 0.00044185575
0.00038003063 0.00010949075 0.00010412037 0.00019727745 0.0003972298 0.0005573624 8.717305e-05 9.3678056e-05
0.00020796183 0.00042584474 0.0006009841 0.00015471411 0.00016897834 0.00031018464 0.0005116288 0.0006553387
0.00040573158 0.00038033637 0.0004940824 0.00062532054 0.0007003659 0.00073418877 0.0006230167 0.000636613
0.00068177 0.0006833714 0.00048753858 0.00052164047 0.0005065115 0.00044700486 0.00037426132 0.00050825544
0.00055741513 0.00051978754 0.0004111535 0.00033579223 0.00047039523 0.0005454725 0.00049975695 0.0003794267
0.0003256607 0.0004464311 0.00052330643 0.00047144076 0.0003728515 0.0003213821 0.00046382673 0.00049612235
0.0004394735 0.00036596737 0.00031553963 0.0026285117 0.0013469342 0.00028649173 5.2117462e-05 0.00029452017
0.0022937811 0.00083570514 5.8879436e-05 2.2853192e-05 0.0004126972 0.0018718409 0.00046341066 1.0866047e-05
4.9383078e-05 0.000720892 0.0014191882 0.00028443703 9.648367e-06 0.00020279935 0.0012006743 0.0010912415
0.00026027652 9.518629e-05 0.0006269399 0.001611229 7.3247465e-06 6.1764554e-06 6.997078e-05 0.00031721647
0.0006384999 1.4382987e-06 7.1075937e-07 2.6970356e-05 0.00023747093 0.0005923382 1.4958845e-06 5.1826373e-07
1.40047505e-05 0.00019148787 0.0005681063 1.8592038e-06 6.026423e-07 1.1131042e-05 0.00018236636 0.000583384
4.4134536e-06 1.3371439e-06 2.3432867e-05 0.00023858885 0.0006385629 0.0010626562 0.000623685 0.0002724649
0.00019845006 0.0002877234 0.001017584 0.00045893283 7.83944e-05 2.0420457e-05 5.4669337e-05 0.0010442695
0.00038746223 3.6584555e-05 2.5423149e-06 9.263024e-06 0.0011122955 0.00047889416 0.00010650916 3.0381783e-05
4.033947e-05 0.0011074416 0.000693343 0.000362846 0.00021795863 0.00018614205

exp_avg f4 [6]
00000000: 9ab6 3f3b a010 a13a 31a6 20bc 29f8 7a3c
00000010: 2569 48bb 74e1 453c
0.0029253126 0.001228828 -0.009805248 0.015317955 -0.003058025 0.012077678

exp_avg_sq f4 [6]
00000000: 8c37 b03a 71f9 603b deb8 923a 9792 403c
00000010: 8ef6 483c 7d7b 8b3b
0.0013444289 0.0034328366 0.0011194011 0.0117537 0.0122658145 0.0042566643

exp_avg f4 [16, 6, 5, 5]
00000000: f6c5 d438 befe 9839 8a36 8339 9488 053a
00000010: 1cdc 6c38 5044 26b9 937f 7538 53ca 8e39
00000020: 1e3c 043a 5a7e e939 546c 8339 d00c a739
00000030: 9621 7a3a 6005 923a 52ef c839 a536 1f3a
00000040: fbcb 813a 5b20 c23a 857e d23a d3ca 123a
00000050: 72ee d335 752d 473a ee2f 203b c5ed 063b
00000060: 23b5 833a 78e1 263a 6c7a ca36 aacf 9a39
00000070: 1d5f 233a 9333 eb39 378c 5f39 07db 2239
00000080: e858 103a 2c2b 823a dd90 4c3a 7fa8 6e39
00000090: 07d2 8e3a 7d36 013b 6843 db3a 0022 883a
000000a0: 508d f139 1758 f03a 96ac 263b 1199 073b
000000b0: b1f3 a43a a006 403a 844d 193b 3174 1f3b
000000c0: 9995 953a ed73 2f3a b65a c1b9 dbaa 5e37
000000d0: 92e3 7e39 f4ef 1c3a 5ad5 0b3a fc25 7639
000000e0: 2543 20b9 1506 9d39 ded7 813a 2954 2f3a
000000f0: 97d4 1f3a 3423 013a 1ffd a13a e4d1 f53a
00000100: 73cf 8c3a 0c25 663a cb1f 8d3a 1822 343b
00000110: 422b 633b 865e f13a 9c1b 3e39 896d 8039
00000120: 38f7 283b ff4a 833b e17d 193b 55d8 33b8
00000130: f0dd a138 3d60 c739 5760 533a cfdb 853a
00000140: c238 033a 637c bf39 29bf 0f3a ead8 1b3a
00000150: cddd 863a cfe0 a23a 6e63 b83a d048 6b3a
00000160: 9caf 0b3a 3f08 763a 7fcf 9a3a d902 ce3a
00000170: 7502 093a 3ec3 443a f232 5d3a cca7 b63a
00000180: 1ade a53a 3085 1c3a a3c8 593a cef3 c53a
00000190: 84f3 a43a 8f94 963a d321 ce3a afe0 bd3a
000001a0: f531 9738 9053 983a 1f8a b73a 1b38 cb3a
000001b0: 800a 9c3a 0051 e139 7985 ab3a c7e0 ce3a
000001c0: a27e 993a 857b 2d3a 405f 193a 0cc6 a53a
000001d0: 45e1 f63a 31ff 8a3a 3f6c e839 aa31 9d39
000001e0: d1ec c03a c2fa e93a 6163 823a 3859 8d39
000001f0: 364e d739 8703 323a d1c9 58b8 489d 9638
00000200: d6da e0b8 100b 3a38 ce95 6a3a a6bb ed39
00000210: def4 9339 2d71 f639 97d9 be39 eb6f 503a
00000220: dddc a43a c58d c43a 8989 be3a 1ba4 dc3a
00000230: 7224 6438 cb7e b2b9 259f 153a 2e53 233b
00000240: 56e4 0d3b 6509 8239 04e6 5139 f31a 2ab9
00000250: 26c1 a739 f4e7 953a 0400 0000 0400 0000
00000260: 0400 0000 0400 0000 0400 0000 0400 0000
00000270: 0400 0000 0400 0000 0400 0000 0400 0000
00000280: 0400 0000 0400 0000 0400 0000 0400 0000
00000290: 0400 0000 0400 0000 0400 0000 0400 0000
000002a0: 0400 0000 0400 0000 0400 0000 0400 0000
000002b0: 0400 0000 0400 0000 0400 0000 0400 0000
000002c0: 0400 0000 0400 0000 0400 0000 0400 0000
000002d0: 0400 0000 0400 0000 0400 0000 0400 0000
000002e0: 0400 0000 0400 0000 0400 0000 0400 0000
000002f0: 0400 0000 0400 0000 0400 0000 0400 0000
00000300: 0400 0000 0400 0000 0400 0000 0400 0000
00000310: 0400 0000 0400 0000 0400 0000 0400 0000
00000320: 0400 0000 0400 0000 0400 0000 0400 0000
00000330: 0400 0000 0400 0000 0400 0000 0400 0000
00000340: 0400 0000 0400 0000 0400 0000 0400 0000
00000350: 0400 0000 0400 0000 0400 0000 0400 0000
00000360: 0400 0000 0400 0000 0400 0000 0400 0000
00000370: 0400 0000 0400 0000 0400 0000 0400 0000
00000380: 0400 0000 0400 0000 0400 0000 0400 0000
00000390: 0400 0000 0400 0000 0400 0000 0400 0000
000003a0: 0400 0000 0400 0000 0400 0000 0400 0000
000003b0: 0400 0000 0400 0000 0400 0000 0400 0000
000003c0: 0400 0000 0400 0000 0400 0000 0400 0000
000003d0: 0400 0000 0400 0000 0400 0000 0400 0000
000003e0: 0400 0000 0400 0000 0400 0000 0400 0000
000003f0: 0400 0000 0400 0000 0400 0000 0400 0000
0.00010145821 0.00029181497 0.00025026902 0.0005093899 5.6471777e-05 -0.00015856442 5.8531365e-05 0.00027235094
0.00050443585 0.00044535362 0.00025066978 0.00031862268 0.0009541748 0.0011140518 0.0003832528 0.00060735113
0.000990271 0.0014810668 0.0016059434 0.0005599681 1.5790122e-06 0.0007598021 0.002444263 0.00205885
0.001004849 0.0006365995 6.034321e-06 0.0002952789 0.00062321295 0.0004486112 0.00021319171 0.00015531118
0.0005506412 0.0009931079 0.0007803569 0.00022760218 0.0010896333 0.0019716315 0.0016728463 0.0010386109
0.00046072388 0.00183368 0.002543246 0.00206906 0.0012584833 0.0007325206 0.002339215 0.002433073
0.0011412381 0.00066929945 -0.00036879414 1.32720115e-05 0.00024308104 0.00059866835 0.0005334221 0.00023474538
-0.00015283802 0.00029949905 0.0009906252 0.0006688261 0.0006097047 0.0004926205 0.0012358761 0.0018754569
0.0010742977 0.0008779324 0.0010766921 0.0027486142 0.0034663235 0.0018415011 0.00018130097 0.00024495673
0.002578212 0.004006743 0.0023420977 -4.28784e-05 7.718417e-05 0.0003802794 0.0008063367 0.0010212603
0.0005005711 0.00036523034 0.0005483502 0.00059451035 0.001028949 0.0012426617 0.0014067718 0.00089753885
0.0005328597 0.0009385384 0.0011811106 0.0015717401 0.00052265014 0.00075059 0.00084380724 0.0013935505
0.0012654692 0.0005970774 0.000830779 0.0015102567 0.001258478 0.0011488366 0.0015726633 0.0014486517
7.209546e-05 0.0011621583 0.0014002955 0.0015504392 0.0011904985 0.00042975694 0.0013086043 0.0015783542
0.0011710713 0.0006617832 0.000585068 0.0012647524 0.0018835446 0.0010604617 0.00044331138 0.00029982376
0.0014719014 0.0017851221 0.000994783 0.0002696009 0.00041066267 0.0006790687 -5.168637e-05 7.181853e-05
-0.00010721914 4.435616e-05 0.0008948714 0.00045343972 0.00028220465 0.000470051 0.0003640174 0.00079512474
0.001257803 0.0014995864 0.0014536838 0.0016833575 5.439338e-05 -0.00034045274 0.00057076133 0.0024921405
0.0021650991 0.00024802532 0.0002001748 -0.00016222503 0.0003199663 0.0011436925 6e-45 6e-45
6e-45 6e-45 6e-45 6e-45 6e-45 6e-45 6e-45 6e-45
6e-45 6e-45 6e-45 6e-45 6e-45 6e-45 6e-45 6e-45
6e-45 6e-45 6e-45 6e-45 6e-45 6e-45 6e-45 6e-45
6e-45 6e-45 6e-45 6e-45 6e-45 6e-45 6e-45 6e-45
6e-45 6e-45 6e-45 6e-45 6e-45 6e-45 6e-45 6e-45
6e-45 6e-45 6e-45 6e-45 6e-45 6e-45 6e-45 6e-45
6e-45 6e-45 6e-45 6e-45 6e-45 6e-45 6e-45 6e-45
6e-45 6e-45 6e-45 6e-45 6e-45 6e-45 6e-45 6e-45
6e-45 6e-45 6e-45 6e-45 6e-45 6e-45 6e-45 6e-45
6e-45 6e-45 6e-45 6e-45 6e-45 6e-45 6e-45 6e-45
6e-45 6e-45 6e-45 6e-45 6e-45 6e-45 6e-45 6e-45
6e-45 6e-45 6e-45 6e-45 6e-45 6e-45 6e-45 6e-45
6e-45 6e-45 6e-45 6e-45 6e-45 6e-45 6e-45 6e-45
